FAT/pretrained_weights/train_FA_cityscapes_foggy/weights/CNNPPP_best.pt (torch, 742761 bytes, 20 tensors)

model.1.weight f2 [16, 3, 3, 3]
0	0x95e7	-0.001441
1	0x2e9b	0.1032
2	0xb112	-0.1584
3	0xb088	-0.1416
4	0xacbe	-0.0741
5	0x2a9b	0.0516
6	0x9bcf	-0.003813
7	0x30e2	0.1526
8	0xa45f	-0.01707
9	0x2a85	0.05093
10	0xab72	-0.05817
11	0xa8d8	-0.03784
12	0xb1e2	-0.1838
13	0xb014	-0.1274
14	0xad14	-0.07935
15	0x1f4d	0.00713
16	0x2cdf	0.0761
17	0x2f64	0.1155
18	0xb02d	-0.1305
19	0xad5d	-0.0838
20	0x2c79	0.0699
21	0x311d	0.1598
22	0xa912	-0.0396
23	0x309c	0.144
24	0xa7f1	-0.03102
25	0x2537	0.02037
26	0x3194	0.1743
27	0xb1b7	-0.1786
28	0xafc1	-0.12115
29	0xaa3d	-0.04874
30	0xaccd	-0.075
31	0x3152	0.1663
32	0xaffc	-0.12476
33	0xadab	-0.08856
34	0xb04d	-0.1344
35	0xb1c5	-0.1803
36	0xaf31	-0.11237
37	0x314b	0.1654
38	0x2d7f	0.0859
39	0x2df8	0.09326
40	0x212f	0.010124
41	0xae51	-0.0987
42	0x282b	0.03256
43	0xb1c0	-0.1797
44	0xb073	-0.139
45	0xae5a	-0.09924
46	0x2fc5	0.1214
47	0x2f39	0.11285
48	0xad76	-0.0853
49	0x9f1c	-0.006943
50	0x2fe1	0.1231
51	0x321f	0.1913
52	0x2ce3	0.07635
53	0x26a8	0.026
54	0x3021	0.129
55	0xaf41	-0.11334
56	0x2897	0.03586
57	0xb0c6	-0.1492
58	0xb045	-0.1334
59	0xae5d	-0.0994
60	0x2d93	0.0871
61	0x2cf4	0.0774
62	0xaf4c	-0.114
63	0x2b71	0.05814
64	0x2ec3	0.10565
65	0xa638	-0.02429
66	0x1f86	0.007347
67	0x29b5	0.0446
68	0x2fa4	0.1194
69	0x31ea	0.1848
70	0xb0bf	-0.1483
71	0xac84	-0.07056
72	0x2cd7	0.0756
73	0x311a	0.1594
74	0x315c	0.1675
75	0x316f	0.1698
76	0x28e7	0.0383
77	0xb15b	-0.1674
78	0x2488	0.0177
79	0xafb5	-0.1204
80	0xb1bd	-0.1793
81	0x3179	0.171
82	0x30af	0.1464
83	0xb225	-0.192
84	0x289c	0.036
85	0xa826	-0.0324
86	0xa80e	-0.03168
87	0xada3	-0.0881
88	0x2cbd	0.07404
89	0xaf4c	-0.114
90	0x2c84	0.07056
91	0x2e3b	0.09735
92	0x3069	0.1378
93	0x2c9b	0.07196
94	0xb218	-0.1904
95	0xaffd	-0.1248
96	0x2e26	0.09607
97	0x2928	0.04028
98	0xb0ce	-0.1501
99	0xaf18	-0.11084
100	0x31cb	0.181
101	0x3026	0.1296
102	0xad5f	-0.0839
103	0xaa33	-0.04843
104	0xb1de	-0.1833
105	0x9b16	-0.00346
106	0xb0a3	-0.1449
107	0xb0c0	-0.1484
108	0xa16e	-0.010605
109	0x2766	0.0289
110	0xad0b	-0.0788
111	0x2f4f	0.1142
112	0xaf7f	-0.1171
113	0x3197	0.1747
114	0x3038	0.1318
115	0xb131	-0.1622
116	0xaa22	-0.0479
117	0x2072	0.00868
118	0x2730	0.02808
119	0x29d8	0.04565
120	0x2cd5	0.0755
121	0x21e7	0.01153
122	0xae02	-0.0939
123	0x2dd4	0.09106
124	0xb1e8	-0.1846
125	0xaf4d	-0.1141
126	0xaa2b	-0.0482
127	0xae00	-0.09375
128	0xac4f	-0.0673
129	0xb10c	-0.1577
130	0xa93d	-0.04092
131	0x2944	0.04114
132	0xb003	-0.1254
133	0xa10f	-0.00988
134	0x3069	0.1378
135	0xa511	-0.01979
136	0x1d7a	0.00535
137	0xa440	-0.0166
138	0x28fc	0.03894
139	0x2fd5	0.1224
140	0x31d5	0.1823
141	0x2fd2	0.1222
142	0x31d9	0.1827
143	0xa320	-0.013916
144	0xb188	-0.1729
145	0xadd7	-0.09125
146	0x3031	0.131
147	0x951c	-0.001247
148	0xae1f	-0.09564
149	0xb0b8	-0.1475
150	0xb1c3	-0.18
151	0xb133	-0.1625
152	0xa8ff	-0.03903
153	0x2ec1	0.1055
154	0x2ea9	0.10406
155	0xb1f0	-0.1855
156	0x2faf	0.12006
157	0xb0d2	-0.1506
158	0xa935	-0.04068
159	0xacfe	-0.078
160	0xa8bf	-0.03708
161	0xa8d6	-0.03778
162	0xb187	-0.1727
163	0xb151	-0.1661
164	0xa7b6	-0.03012
165	0x1919	0.00249
166	0xad98	-0.0874
167	0x2ca4	0.0725
168	0xb18b	-0.1732
169	0xa2a6	-0.012985
170	0x316a	0.1692
171	0xad06	-0.0785
172	0x3190	0.1738
173	0x2c76	0.0697
174	0xb18f	-0.1737
175	0x2fcb	0.12177
176	0xa5af	-0.0222
177	0xad80	-0.08594
178	0x30ed	0.1539
179	0xb0fa	-0.1555
180	0x2549	0.02065
181	0xa928	-0.04028
182	0x3066	0.1375
183	0x2ae0	0.0537
184	0x2deb	0.09247
185	0x2c5a	0.068
186	0xa9ec	-0.04626
187	0xa92e	-0.04047
188	0xb113	-0.1586
189	0x2eac	0.10425
190	0x30e4	0.1528
191	0x3037	0.1317
192	0xb058	-0.1357
193	0x2065	0.00858
194	0xb057	-0.1356
195	0xaec8	-0.10596
196	0xaf2d	-0.1121
197	0x2c36	0.0658
198	0xaf57	-0.1147
199	0x9c4d	-0.0042
200	0x2025	0.008095
201	0x2ff1	0.1241
202	0xb0a8	-0.1455
203	0xb03a	-0.1321
204	0xaf27	-0.11176
205	0x304f	0.1346
206	0xac6d	-0.06915
207	0x3132	0.1624
208	0x2c74	0.0696
209	0x263d	0.02437
210	0x95de	-0.001432
211	0xa8df	-0.03806
212	0x262e	0.02414
213	0xa9a0	-0.04395
214	0x958a	-0.001352
215	0x2649	0.02455
216	0xb0d1	-0.1505
217	0xae75	-0.1009
218	0x30f9	0.1554
219	0xb0ff	-0.1561
220	0xa313	-0.01382
221	0x3218	0.1904
222	0x2c73	0.0695
223	0x1d94	0.005447
224	0xb156	-0.1667
225	0x2e1a	0.09534
226	0xb063	-0.1371
227	0xaafe	-0.05463
228	0xac22	-0.0646
229	0xa74c	-0.0285
230	0x1850	0.002106
231	0x3114	0.1587
232	0x2627	0.02403
233	0x3184	0.1724
234	0x2f89	0.11774
235	0xafc9	-0.12164
236	0x2d86	0.0863
237	0xb05a	-0.136
238	0xad38	-0.08154
239	0x2b3f	0.0566
240	0x2c11	0.06354
241	0x309f	0.1444
242	0xabee	-0.06195
243	0x0d0c	0.000308
244	0x2e57	0.09906
245	0xb1f5	-0.1862
246	0x3074	0.1392
247	0xb118	-0.1592
248	0x196f	0.002653
249	0xa830	-0.0327
250	0xae7d	-0.1014
251	0x2683	0.02544
252	0x3118	0.1592
253	0xab33	-0.05624
254	0xaf50	-0.11426
255	0xac8e	-0.07117

model.1.bias f2 [16]
0	0x313a	0.1633
1	0x2276	0.01262
2	0xb01b	-0.1283
3	0xac6a	-0.069
4	0x2961	0.04202
5	0xb0b2	-0.1467
6	0x2e1e	0.0956
7	0xb197	-0.1747
8	0xb1ec	-0.185
9	0xb1fc	-0.187
10	0xa8ff	-0.03903
11	0x3024	0.1294
12	0xb1d4	-0.1821
13	0x311e	0.1599
14	0xaced	-0.07697
15	0x2b37	0.05637

model.3.weight f2 [16]
0	0x3c00	1.0
1	0x3c00	1.0
2	0x3c00	1.0
3	0x3c00	1.0
4	0x3c00	1.0
5	0x3c00	1.0
6	0x3c00	1.0
7	0x3c00	1.0
8	0x3c00	1.0
9	0x3c00	1.0
10	0x3c00	1.0
11	0x3c00	1.0
12	0x3c00	1.0
13	0x3c00	1.0
14	0x3c00	1.0
15	0x3c00	1.0

model.3.bias f2 [16]
0	0x0000	0.0
1	0x0000	0.0
2	0x0000	0.0
3	0x0000	0.0
4	0x0000	0.0
5	0x0000	0.0
6	0x0000	0.0
7	0x0000	0.0
8	0x0000	0.0
9	0x0000	0.0
10	0x0000	0.0
11	0x0000	0.0
12	0x0000	0.0
13	0x0000	0.0
14	0x0000	0.0
15	0x0000	0.0

model.4.weight f2 [32, 16, 3, 3]
0	0x1bc8	0.0038
1	0xaccf	-0.07513
2	0x2c6c	0.0691
3	0x29be	0.04486
4	0x2d4d	0.0828
5	0x2964	0.0421
6	0xab0a	-0.055
7	0x2c73	0.0695
8	0x1c96	0.00448
9	0x290f	0.03952
10	0xac47	-0.06683
11	0xa623	-0.02397
12	0xad3d	-0.08185
13	0xa828	-0.03247
14	0x249a	0.01797
15	0xac30	-0.0654
16	0x26cd	0.02657
17	0x29ba	0.04474
18	0x21f2	0.01161
19	0xab23	-0.05576
20	0xac23	-0.06464
21	0xa695	-0.02571
22	0x28af	0.0366
23	0x2d43	0.0822
24	0x2a22	0.0479
25	0xa0ce	-0.009384
26	0x277b	0.02922
27	0xad3b	-0.0817
28	0xac8e	-0.07117
29	0x28fa	0.03888
30	0xaa0b	-0.0472
31	0x2922	0.0401
32	0xab88	-0.05884
33	0xa949	-0.0413
34	0xac65	-0.06866
35	0x2991	0.0435
36	0xa059	-0.00849
37	0x2c1b	0.06415
38	0x2a9a	0.05157
39	0x29e7	0.0461
40	0x197d	0.00268
41	0xa699	-0.02577
42	0xa4a3	-0.01811
43	0x21ac	0.01108
44	0x294a	0.04132
45	0xab79	-0.05838
46	0x2c7a	0.06995
47	0xa0a4	-0.00906
48	0xac78	-0.0698
49	0xa9c5	-0.04507
50	0x2cb8	0.0737
51	0x2ce1	0.07623
52	0xacf1	-0.0772
53	0x2b86	0.05878
54	0x2958	0.04175
55	0x2a50	0.04932
56	0x2c84	0.07056
57	0xa9c0	-0.04492
58	0x26bd	0.02632
59	0x285d	0.0341
60	0xa64e	-0.02463
61	0x2724	0.0279
62	0xa623	-0.02397
63	0x2a98	0.0515
64	0xa5eb	-0.02312
65	0xa7f4	-0.03107
66	0x255f	0.02098
67	0x2791	0.02956
68	0xa936	-0.0407
69	0x1f8b	0.007366
70	0x2a2f	0.0483
71	0xa03f	-0.00829
72	0x267e	0.02536
73	0xa525	-0.0201
74	0x277a	0.0292
75	0xabba	-0.06036
76	0xaa46	-0.049
77	0xa96a	-0.0423
78	0x2ce7	0.0766
79	0xa5be	-0.02243
80	0x8b75	-0.0002276
81	0xa92b	-0.04037
82	0x2d53	0.0832
83	0x2d35	0.08136
84	0xac06	-0.06287
85	0xac53	-0.06757
86	0xac0b	-0.0632
87	0x8e96	-0.000402
88	0xa570	-0.02124
89	0xaafb	-0.05453
90	0xa7a7	-0.02989
91	0x2408	0.01575
92	0xa993	-0.04355
93	0x24ba	0.01846
94	0xa4e4	-0.0191
95	0xa92b	-0.04037
96	0x21dd	0.01145
97	0x2c63	0.06854
98	0xab36	-0.05634
99	0x1bed	0.00387
100	0xa7de	-0.03073
101	0x2d3c	0.0818
102	0xad0f	-0.07904
103	0xad1d	-0.0799
104	0x2d41	0.0821
105	0xaac0	-0.05273
106	0x2417	0.01598
107	0x9f5d	-0.00719
108	0xa47e	-0.01755
109	0xa4c4	-0.01862
110	0x2ac7	0.05295
111	0x1c14	0.003983
112	0xad31	-0.0811
113	0xaa4c	-0.0492
114	0xa746	-0.02841
115	0x295e	0.04193
116	0xaae7	-0.05392
117	0x2d07	0.07855
118	0xa4c0	-0.01855
119	0xa3a9	-0.01496
120	0x2c2e	0.0653
121	0x295c	0.04187
122	0x2c86	0.0707
123	0x2a2c	0.04822
124	0xa679	-0.02528
125	0xab14	-0.0553
126	0x9e59	-0.0062
127	0x2c6a	0.069
128	0xa729	-0.02797
129	0xacf2	-0.0773
130	0x285f	0.03415
131	0x2d31	0.0811
132	0xa613	-0.02373
133	0xac6b	-0.06903
134	0xacd6	-0.07556
135	0x2559	0.02089
136	0x9e76	-0.00631
137	0xa963	-0.04208
138	0x2450	0.01685
139	0x280d	0.03165
140	0x2c3e	0.0663
141	0x2c24	0.0647
142	0xa263	-0.012474
143	0xacb4	-0.0735
144	0xacd2	-0.0753
145	0x2cfb	0.0778
146	0x28b7	0.03683
147	0x28a6	0.03632
148	0xac9d	-0.0721
149	0x2cf0	0.07715
150	0x2d0d	0.0789
151	0x2cd1	0.07526
152	0xac80	-0.0703
153	0xa806	-0.03143
154	0xab56	-0.0573
155	0x2d0d	0.0789
156	0xa895	-0.0358
157	0xa8df	-0.03806
158	0x2997	0.04367
159	0xa8ef	-0.03854
160	0xa941	-0.04105
161	0x9f77	-0.00729
162	0xa01a	-0.00801
163	0xac28	-0.06494
164	0x2c72	0.06946
165	0xa8b5	-0.03677
166	0x2791	0.02956
167	0x2ca4	0.0725
168	0x2961	0.04202
169	0x220a	0.011795
170	0x2c8a	0.0709
171	0x21bc	0.0112
172	0xa8ef	-0.03854
173	0x2d0c	0.07886
174	0x250d	0.01973
175	0xad34	-0.0813
176	0xa613	-0.02373
177	0xab44	-0.05676
178	0x2cad	0.07306
179	0xa30c	-0.01376
180	0xacdd	-0.076
181	0x9d5d	-0.005238
182	0x2ab3	0.05234
183	0x258b	0.02165
184	0x26bf	0.02635
185	0x1fed	0.00774
186	0x27f4	0.03107
187	0xa533	-0.02031
188	0xa83e	-0.03314
189	0xacfc	-0.0779
190	0xac05	-0.0628
191	0x289f	0.0361
192	0xaa51	-0.04935
193	0x221f	0.011955
194	0x26cf	0.0266
195	0x1e0b	0.0059
196	0xaaea	-0.05402
197	0x2d1a	0.0797
198	0xaa34	-0.04846
199	0x2c63	0.06854
200	0xac3e	-0.0663
201	0xa522	-0.02005
202	0x29cd	0.04532
203	0xa85c	-0.03406
204	0x2c7b	0.07
205	0xab57	-0.05734
206	0xac7b	-0.07
207	0xa8cf	-0.03757
208	0x22e6	0.01347
209	0x2ce9	0.0767
210	0xa918	-0.0398
211	0x27a1	0.0298
212	0xa559	-0.02089
213	0xa4a0	-0.01807
214	0x2bd8	0.06128
215	0xac22	-0.0646
216	0x2088	0.00885
217	0x2d04	0.07837
218	0xa1dd	-0.01145
219	0x2c24	0.0647
220	0xa692	-0.02567
221	0x2c4b	0.0671
222	0xad29	-0.0806
223	0xa226	-0.01201
224	0xa37f	-0.01464
225	0x26ea	0.02701
226	0x282f	0.03268
227	0x2c18	0.06396
228	0xa25b	-0.01241
229	0x9ac5	-0.003305
230	0x2b4e	0.05707
231	0xa5c6	-0.02255
232	0x2cad	0.07306
233	0xab1a	-0.05548
234	0xa09e	-0.00902
235	0x9c95	-0.004475
236	0x28c2	0.03717
237	0x2b4b	0.05698
238	0xa2c3	-0.01321
239	0xac6b	-0.06903
240	0x2949	0.0413
241	0x2662	0.02493
242	0x2849	0.03348
243	0xaa94	-0.0514
244	0x2add	0.05362
245	0x2d0d	0.0789
246	0x1f68	0.007233
247	0xacfb	-0.0778
248	0x2b7d	0.0585
249	0xabe9	-0.0618
250	0x24e7	0.01915
251	0x2233	0.01211
252	0xa8fe	-0.039
253	0x276e	0.02902
254	0xacc5	-0.0745
255	0x24dc	0.01898

model.4.bias f2 [32]
0	0x2869	0.03445
1	0x2d38	0.08154
2	0x2cd1	0.07526
3	0x2cfc	0.0779
4	0x2cc7	0.07465
5	0x2c56	0.06775
6	0x2596	0.02182
7	0x9f25	-0.006977
8	0x1a7e	0.00317
9	0xa86f	-0.03464
10	0x2903	0.03915
11	0x18f2	0.002415
12	0x2508	0.01965
13	0xaadf	-0.05368
14	0xa804	-0.03137
15	0x2bff	0.06247
16	0x2026	0.0081
17	0x275d	0.02876
18	0xaca8	-0.07275
19	0xa891	-0.03568
20	0x9858	-0.002121
21	0xa07a	-0.00874
22	0x2acf	0.0532
23	0xa670	-0.02515
24	0x2c74	0.0696
25	0xa420	-0.01611
26	0x2826	0.0324
27	0xab82	-0.05865
28	0x233e	0.014145
29	0xad33	-0.08124
30	0xac93	-0.0715
31	0xaad4	-0.05334

model.6.weight f2 [32]
0	0x3c00	1.0
1	0x3c00	1.0
2	0x3c00	1.0
3	0x3c00	1.0
4	0x3c00	1.0
5	0x3c00	1.0
6	0x3c00	1.0
7	0x3c00	1.0
8	0x3c00	1.0
9	0x3c00	1.0
10	0x3c00	1.0
11	0x3c00	1.0
12	0x3c00	1.0
13	0x3c00	1.0
14	0x3c00	1.0
15	0x3c00	1.0
16	0x3c00	1.0
17	0x3c00	1.0
18	0x3c00	1.0
19	0x3c00	1.0
20	0x3c00	1.0
21	0x3c00	1.0
22	0x3c00	1.0
23	0x3c00	1.0
24	0x3c00	1.0
25	0x3c00	1.0
26	0x3c00	1.0
27	0x3c00	1.0
28	0x3c00	1.0
29	0x3c00	1.0
30	0x3c00	1.0
31	0x3c00	1.0

model.6.bias f2 [32]
0	0x0000	0.0
1	0x0000	0.0
2	0x0000	0.0
3	0x0000	0.0
4	0x0000	0.0
5	0x0000	0.0
6	0x0000	0.0
7	0x0000	0.0
8	0x0000	0.0
9	0x0000	0.0
10	0x0000	0.0
11	0x0000	0.0
12	0x0000	0.0
13	0x0000	0.0
14	0x0000	0.0
15	0x0000	0.0
16	0x0000	0.0
17	0x0000	0.0
18	0x0000	0.0
19	0x0000	0.0
20	0x0000	0.0
21	0x0000	0.0
22	0x0000	0.0
23	0x0000	0.0
24	0x0000	0.0
25	0x0000	0.0
26	0x0000	0.0
27	0x0000	0.0
28	0x0000	0.0
29	0x0000	0.0
30	0x0000	0.0
31	0x0000	0.0

model.7.weight f2 [64, 32, 3, 3]
0	0x2439	0.0165
1	0x1cad	0.004566
2	0x1dd7	0.005703
3	0x9e9a	-0.006447
4	0x2a56	0.0495
5	0x2b63	0.0577
6	0x2668	0.02502
7	0x2a00	0.04688
8	0x99f7	-0.002913
9	0xa58c	-0.02167
10	0x21de	0.01146
11	0x28f6	0.03876
12	0xa0aa	-0.00911
13	0xa9cb	-0.04526
14	0x24fb	0.01945
15	0xa3b1	-0.01502
16	0xa743	-0.02837
17	0x28c4	0.03723
18	0x9819	-0.002
19	0xa850	-0.0337
20	0xa883	-0.03525
21	0x2b1a	0.05548
22	0x28e8	0.03833
23	0xa969	-0.04227
24	0x01d9	2.82e-05
25	0x9539	-0.001275
26	0x2731	0.02809
27	0xaa76	-0.05048
28	0x132d	0.000876
29	0x2507	0.01964
30	0x27ad	0.02998
31	0x1e4f	0.00616
32	0xa77a	-0.0292
33	0xab3e	-0.05658
34	0x2814	0.03186
35	0x2ae3	0.0538
36	0xa48e	-0.01779
37	0xaabe	-0.05267
38	0x246a	0.01724
39	0xa94a	-0.04132
40	0xa8ee	-0.0385
41	0x241d	0.01607
42	0x9dbb	-0.005596
43	0x9c1b	-0.00401
44	0x2ac4	0.05286
45	0xa14b	-0.01034
46	0x2897	0.03586
47	0xa4b2	-0.01834
48	0x299d	0.04385
49	0x249a	0.01797
50	0x2ab9	0.05252
51	0x2543	0.02055
52	0xa558	-0.02087
53	0x2693	0.02568
54	0x2a6d	0.0502
55	0x21b8	0.01117
56	0x26f4	0.02716
57	0xa94e	-0.04144
58	0x2816	0.03192
59	0xab21	-0.0557
60	0x2aab	0.0521
61	0x263b	0.02434
62	0x1bf1	0.003878
63	0xab0f	-0.05515
64	0x2adc	0.0536
65	0x28cf	0.03757
66	0x2af4	0.05432
67	0x25ee	0.02316
68	0x2515	0.01985
69	0xa3d1	-0.01527
70	0xa62f	-0.02415
71	0x25fb	0.02336
72	0x253b	0.02043
73	0x97d3	-0.00191
74	0x20cc	0.00937
75	0x252f	0.02025
76	0xab4a	-0.05695
77	0xaaac	-0.05212
78	0xa404	-0.01569
79	0x2923	0.04013
80	0x275c	0.02875
81	0xab33	-0.05624
82	0xa487	-0.01768
83	0x9e61	-0.00623
84	0x24f4	0.01935
85	0x2a2c	0.04822
86	0x1547	0.001288
87	0xa9df	-0.04587
88	0x1b68	0.003616
89	0xa5d3	-0.02275
90	0xa89c	-0.036
91	0x282d	0.03262
92	0xa00e	-0.00792
93	0x2721	0.02785
94	0x29df	0.04587
95	0x1dee	0.00579
96	0x2840	0.0332
97	0xa720	-0.02783
98	0x2836	0.0329
99	0x18d2	0.002354
100	0x2903	0.03915
101	0x2b36	0.05634
102	0xa9b5	-0.0446
103	0x2b29	0.05594
104	0x29c2	0.04498
105	0xaa13	-0.04745
106	0x246c	0.01727
107	0xaa24	-0.04797
108	0x24e5	0.01912
109	0x20aa	0.00911
110	0xab33	-0.05624
111	0x257a	0.0214
112	0xa425	-0.01619
113	0x2b85	0.05875
114	0x2b5d	0.05753
115	0x2535	0.02034
116	0x29f2	0.04645
117	0x2573	0.02129
118	0x2b23	0.05576
119	0x9d92	-0.00544
120	0x2375	0.014565
121	0xa0fc	-0.009735
122	0x9439	-0.001031
123	0xa48d	-0.01778
124	0xa5f8	-0.02332
125	0x285d	0.0341
126	0x2679	0.02528
127	0xa6a9	-0.02602
128	0xaaa6	-0.05194
129	0x2760	0.02881
130	0xaaf0	-0.0542
131	0x9957	-0.002607
132	0xaa7d	-0.0507
133	0x2a51	0.04935
134	0x2a24	0.04797
135	0xaa33	-0.04843
136	0xab03	-0.05478
137	0xa876	-0.03485
138	0x242a	0.01627
139	0xa78b	-0.02946
140	0xa32f	-0.01403
141	0xa3a6	-0.01494
142	0x2189	0.01081
143	0xa723	-0.02788
144	0x26dc	0.0268
145	0xa966	-0.04218
146	0x9d5f	-0.005245
147	0x2a53	0.0494
148	0xa82a	-0.03253
149	0x29c9	0.0452
150	0x27da	0.03067
151	0xa4df	-0.01903
152	0x253b	0.02043
153	0xa918	-0.0398
154	0x1cdb	0.00474
155	0x2446	0.0167
156	0x2a86	0.05096
157	0xa838	-0.03296
158	0xa84a	-0.0335
159	0xa787	-0.0294
160	0xab59	-0.0574
161	0x221a	0.01192
162	0xaa3e	-0.04877
163	0xa40d	-0.01582
164	0xa6bb	-0.02629
165	0x1abf	0.003294
166	0x2493	0.01787
167	0xa97b	-0.04282
168	0xa474	-0.0174
169	0x9dcd	-0.005665
170	0xa85c	-0.03406
171	0x22f8	0.01361
172	0x2596	0.02182
173	0xa960	-0.042
174	0x29ee	0.04633
175	0x295c	0.04187
176	0xa488	-0.0177
177	0x207d	0.008766
178	0x1f59	0.007175
179	0xa02a	-0.00813
180	0xa910	-0.03955
181	0x2a37	0.04855
182	0x276c	0.02899
183	0xaa4e	-0.04926
184	0xa9d8	-0.04565
185	0x2b2c	0.05603
186	0x20d1	0.00941
187	0xa2ee	-0.013535
188	0x291d	0.03995
189	0x2455	0.01692
190	0x256a	0.02115
191	0x29fc	0.04675
192	0x9cb6	-0.0046
193	0x2b30	0.05615
194	0xa94c	-0.04138
195	0xa897	-0.03586
196	0x211d	0.00999
197	0x9f53	-0.007153
198	0x284e	0.03363
199	0xa41a	-0.01602
200	0x20bf	0.00927
201	0xa245	-0.012245
202	0x29aa	0.04425
203	0x9bea	-0.003864
204	0x1369	0.0009046
205	0x2987	0.04318
206	0x2b55	0.05728
207	0x2b38	0.0564
208	0xab60	-0.05762
209	0xa843	-0.0333
210	0xa28d	-0.012794
211	0xa23a	-0.01216
212	0x285d	0.0341
213	0x26d0	0.02661
214	0x9cf7	-0.00485
215	0x15b8	0.001396
216	0x2277	0.01263
217	0x2a81	0.0508
218	0x27d1	0.03053
219	0xa79c	-0.02972
220	0xa7ba	-0.03018
221	0x24c5	0.01863
222	0x9e1a	-0.00596
223	0xa8d7	-0.0378
224	0xab4d	-0.05704
225	0x2052	0.00844
226	0xa468	-0.01721
227	0xa863	-0.03427
228	0x21ad	0.011086
229	0x2b58	0.05737
230	0x2a44	0.04895
231	0x284d	0.0336
232	0xa9b0	-0.04443
233	0x284e	0.03363
234	0x27cd	0.03047
235	0x2508	0.01965
236	0xa384	-0.01468
237	0x9434	-0.001026
238	0xa817	-0.03195
239	0xa2cc	-0.013275
240	0xa0f7	-0.0097
241	0xa046	-0.00835
242	0xab82	-0.05865
243	0x2552	0.02078
244	0xaa2c	-0.04822
245	0xa9a4	-0.04407
246	0x2621	0.02394
247	0xaa2d	-0.04825
248	0x2b32	0.0562
249	0x2b39	0.05643
250	0xa4cb	-0.01872
251	0xa133	-0.010155
252	0xa9c5	-0.04507
253	0x1b76	0.003643
254	0x2184	0.01077
255	0xa823	-0.03232

model.7.bias f2 [64]
0	0x2807	0.03146
1	0xa9c4	-0.04504
2	0x24dc	0.01898
3	0xa8c6	-0.0373
4	0x2aa4	0.05188
5	0xa977	-0.0427
6	0x2ad5	0.05338
7	0x278f	0.02953
8	0xa120	-0.01001
9	0x2b58	0.05737
10	0xa717	-0.0277
11	0x9b01	-0.00342
12	0x23f7	0.01556
13	0x285e	0.03412
14	0x29ce	0.04535
15	0xab0a	-0.055
16	0x22bb	0.013145
17	0x2956	0.0417
18	0xa509	-0.01967
19	0x237f	0.01464
20	0x039b	5.5e-05
21	0x9c5b	-0.004253
22	0x9d3b	-0.005108
23	0xaafe	-0.05463
24	0xa8cf	-0.03757
25	0x2965	0.04214
26	0x2b3f	0.0566
27	0xa026	-0.0081
28	0x2a28	0.0481
29	0xa870	-0.03467
30	0x2a17	0.04758
31	0x2826	0.0324
32	0x249a	0.01797
33	0x9a87	-0.003187
34	0x9dee	-0.00579
35	0x2719	0.02773
36	0xa0ad	-0.00913
37	0xa8d6	-0.03778
38	0x28b8	0.03687
39	0xa8d2	-0.03766
40	0xa71d	-0.02779
41	0x2b5a	0.05743
42	0x24b7	0.01842
43	0x26d5	0.02669
44	0x299a	0.04376
45	0xa5db	-0.02287
46	0x2b57	0.05734
47	0xa912	-0.0396
48	0x1ba5	0.003733
49	0xa971	-0.0425
50	0xa9fb	-0.04672
51	0x1efd	0.006824
52	0x0fed	0.0004838
53	0x28de	0.03802
54	0xa9b5	-0.0446
55	0x2547	0.02061
56	0xa098	-0.00897
57	0x225f	0.01244
58	0xa1aa	-0.01106
59	0x22a7	0.01299
60	0x0a00	0.0001831
61	0xaa90	-0.05127
62	0xaaae	-0.0522
63	0xa389	-0.01472

model.9.weight f2 [64]
0	0x3c00	1.0
1	0x3c00	1.0
2	0x3c00	1.0
3	0x3c00	1.0
4	0x3c00	1.0
5	0x3c00	1.0
6	0x3c00	1.0
7	0x3c00	1.0
8	0x3c00	1.0
9	0x3c00	1.0
10	0x3c00	1.0
11	0x3c00	1.0
12	0x3c00	1.0
13	0x3c00	1.0
14	0x3c00	1.0
15	0x3c00	1.0
16	0x3c00	1.0
17	0x3c00	1.0
18	0x3c00	1.0
19	0x3c00	1.0
20	0x3c00	1.0
21	0x3c00	1.0
22	0x3c00	1.0
23	0x3c00	1.0
24	0x3c00	1.0
25	0x3c00	1.0
26	0x3c00	1.0
27	0x3c00	1.0
28	0x3c00	1.0
29	0x3c00	1.0
30	0x3c00	1.0
31	0x3c00	1.0
32	0x3c00	1.0
33	0x3c00	1.0
34	0x3c00	1.0
35	0x3c00	1.0
36	0x3c00	1.0
37	0x3c00	1.0
38	0x3c00	1.0
39	0x3c00	1.0
40	0x3c00	1.0
41	0x3c00	1.0
42	0x3c00	1.0
43	0x3c00	1.0
44	0x3c00	1.0
45	0x3c00	1.0
46	0x3c00	1.0
47	0x3c00	1.0
48	0x3c00	1.0
49	0x3c00	1.0
50	0x3c00	1.0
51	0x3c00	1.0
52	0x3c00	1.0
53	0x3c00	1.0
54	0x3c00	1.0
55	0x3c00	1.0
56	0x3c00	1.0
57	0x3c00	1.0
58	0x3c00	1.0
59	0x3c00	1.0
60	0x3c00	1.0
61	0x3c00	1.0
62	0x3c00	1.0
63	0x3c00	1.0

model.9.bias f2 [64]
0	0x0000	0.0
1	0x0000	0.0
2	0x0000	0.0
3	0x0000	0.0
4	0x0000	0.0
5	0x0000	0.0
6	0x0000	0.0
7	0x0000	0.0
8	0x0000	0.0
9	0x0000	0.0
10	0x0000	0.0
11	0x0000	0.0
12	0x0000	0.0
13	0x0000	0.0
14	0x0000	0.0
15	0x0000	0.0
16	0x0000	0.0
17	0x0000	0.0
18	0x0000	0.0
19	0x0000	0.0
20	0x0000	0.0
21	0x0000	0.0
22	0x0000	0.0
23	0x0000	0.0
24	0x0000	0.0
25	0x0000	0.0
26	0x0000	0.0
27	0x0000	0.0
28	0x0000	0.0
29	0x0000	0.0
30	0x0000	0.0
31	0x0000	0.0
32	0x0000	0.0
33	0x0000	0.0
34	0x0000	0.0
35	0x0000	0.0
36	0x0000	0.0
37	0x0000	0.0
38	0x0000	0.0
39	0x0000	0.0
40	0x0000	0.0
41	0x0000	0.0
42	0x0000	0.0
43	0x0000	0.0
44	0x0000	0.0
45	0x0000	0.0
46	0x0000	0.0
47	0x0000	0.0
48	0x0000	0.0
49	0x0000	0.0
50	0x0000	0.0
51	0x0000	0.0
52	0x0000	0.0
53	0x0000	0.0
54	0x0000	0.0
55	0x0000	0.0
56	0x0000	0.0
57	0x0000	0.0
58	0x0000	0.0
59	0x0000	0.0
60	0x0000	0.0
61	0x0000	0.0
62	0x0000	0.0
63	0x0000	0.0

model.10.weight f2 [128, 64, 3, 3]
0	0xa94d	-0.0414
1	0xa0e0	-0.00952
2	0x2578	0.02136
3	0x27e3	0.0308
4	0x1cf3	0.004833
5	0x2048	0.00836
6	0x25f1	0.02321
7	0x9cb1	-0.00458
8	0x099f	0.0001715
9	0x9a06	-0.002941
10	0x2616	0.02377
11	0x28d3	0.0377
12	0x9d4a	-0.005165
13	0x28c7	0.03732
14	0x2553	0.0208
15	0x281e	0.03217
16	0x217d	0.01072
17	0x9c15	-0.003986
18	0x281c	0.0321
19	0x21f2	0.01161
20	0x0d5b	0.0003269
21	0x291a	0.03986
22	0xa2ff	-0.013664
23	0x238b	0.01473
24	0x9b67	-0.003614
25	0xa1f8	-0.01166
26	0xa744	-0.02838
27	0x2891	0.03568
28	0xa941	-0.04105
29	0x21a1	0.010994
30	0x2619	0.02382
31	0xa932	-0.0406
32	0x293c	0.0409
33	0xa7ae	-0.03
34	0x2537	0.02037
35	0x24b7	0.01842
36	0x14a7	0.001136
37	0x2209	0.01179
38	0x24e5	0.01912
39	0x2760	0.02881
40	0x9933	-0.002539
41	0x1d0c	0.00493
42	0x1b5e	0.003597
43	0x2415	0.01595
44	0x230b	0.013756
45	0x24b2	0.01834
46	0xa1c3	-0.01125
47	0x2396	0.01482
48	0xa039	-0.00825
49	0x292a	0.04034
50	0xa951	-0.04153
51	0x9ee9	-0.00675
52	0x9ec1	-0.006596
53	0x2456	0.01694
54	0x28f0	0.03857
55	0xa673	-0.02519
56	0x2702	0.02737
57	0x998c	-0.002708
58	0xa515	-0.01985
59	0x0064	5.96e-06
60	0x1fe8	0.00772
61	0x9ae3	-0.003363
62	0xa50a	-0.01968
63	0x25fe	0.0234
64	0x2466	0.01718
65	0x241d	0.01607
66	0x9620	-0.001495
67	0x2136	0.01018
68	0xa379	-0.014595
69	0xa6fd	-0.0273
70	0xa739	-0.02821
71	0x2831	0.03275
72	0xa3da	-0.015335
73	0xa68d	-0.02559
74	0xa656	-0.02475
75	0x2940	0.04102
76	0xa12c	-0.0101
77	0xa65c	-0.02484
78	0xa520	-0.02002
79	0x28c9	0.03738
80	0x95b4	-0.001392
81	0x25f6	0.02328
82	0x2592	0.02176
83	0x24b6	0.0184
84	0x27a5	0.02986
85	0xa86e	-0.0346
86	0x25ff	0.02342
87	0x27ed	0.03096
88	0x2581	0.0215
89	0xa560	-0.021
90	0xa4d3	-0.01884
91	0xa936	-0.0407
92	0xa8c7	-0.03732
93	0x1a85	0.003183
94	0x2227	0.01202
95	0x255c	0.02094
96	0x1897	0.002241
97	0xa5b0	-0.02222
98	0x95c2	-0.001406
99	0x1ce4	0.004776
100	0x28e9	0.03836
101	0x23c4	0.01517
102	0x1de2	0.005745
103	0x9cfb	-0.004864
104	0x2537	0.02037
105	0x27c3	0.03032
106	0x1dd2	0.005684
107	0xa805	-0.0314
108	0x290b	0.0394
109	0x9f49	-0.007114
110	0xa8c2	-0.03717
111	0xa7f8	-0.03113
112	0xa8ae	-0.03656
113	0x236c	0.014496
114	0x2829	0.0325
115	0xa762	-0.02884
116	0xa47f	-0.01756
117	0x1423	0.00101
118	0x28b3	0.0367
119	0xa2c6	-0.01323
120	0x2527	0.02013
121	0x26ef	0.02708
122	0xa437	-0.01646
123	0xa716	-0.02768
124	0xa443	-0.01665
125	0x286b	0.03452
126	0x26bf	0.02635
127	0x26eb	0.02702
128	0x19a1	0.002748
129	0x2519	0.01991
130	0x9faf	-0.007504
131	0x26da	0.02676
132	0xa890	-0.03564
133	0x2943	0.0411
134	0x229e	0.012924
135	0x2032	0.008194
136	0xa453	-0.01689
137	0xa776	-0.02914
138	0x92ff	-0.000854
139	0xa7b3	-0.03008
140	0x1cbe	0.00463
141	0x2473	0.01738
142	0x28a5	0.0363
143	0xa877	-0.03488
144	0xa5d0	-0.0227
145	0x25b6	0.02231
146	0x28fa	0.03888
147	0x249d	0.01802
148	0xa60b	-0.0236
149	0xa354	-0.01431
150	0xa695	-0.02571
151	0x2637	0.02428
152	0xa8a7	-0.03635
153	0xa87a	-0.03497
154	0x2898	0.0359
155	0xa880	-0.03516
156	0xa4fb	-0.01945
157	0xa17b	-0.010704
158	0x2658	0.02478
159	0x2928	0.04028
160	0xa65b	-0.02483
161	0xa800	-0.03125
162	0x20fa	0.00972
163	0x2221	0.01197
164	0x2646	0.0245
165	0x261b	0.02385
166	0xa6b8	-0.02625
167	0x2052	0.00844
168	0xa69a	-0.02579
169	0x276d	0.029
170	0x1ce7	0.004787
171	0x270b	0.02751
172	0xa2af	-0.013054
173	0xa359	-0.01435
174	0xa7d7	-0.03062
175	0xa8fd	-0.03897
176	0x26cf	0.0266
177	0x2719	0.02773
178	0x27cd	0.03047
179	0xa88a	-0.03546
180	0x2544	0.02057
181	0xa951	-0.04153
182	0x2442	0.01663
183	0x28a5	0.0363
184	0xa763	-0.02885
185	0xa80b	-0.0316
186	0xa80b	-0.0316
187	0x1154	0.0006504
188	0x19b8	0.002792
189	0x2473	0.01738
190	0x9e84	-0.006363
191	0x24e4	0.0191
192	0xa4ca	-0.0187
193	0xa6cc	-0.02655
194	0x984c	-0.002098
195	0x28e9	0.03836
196	0x2501	0.01955
197	0xa89e	-0.03607
198	0x9b81	-0.003664
199	0x123f	0.0007625
200	0xa0a1	-0.00904
201	0x13cb	0.0009513
202	0x1b52	0.003574
203	0xa3b6	-0.01506
204	0x22e7	0.01348
205	0x290a	0.03937
206	0x2555	0.02083
207	0xa832	-0.03278
208	0x9dae	-0.005547
209	0xa3b4	-0.015045
210	0x9b01	-0.00342
211	0x261c	0.02386
212	0x240a	0.01578
213	0x1c5a	0.00425
214	0x2167	0.01055
215	0x2157	0.01043
216	0xa890	-0.03564
217	0xa0ad	-0.00913
218	0x1e05	0.00588
219	0xa824	-0.03235
220	0xa0b7	-0.00921
221	0x25eb	0.02312
222	0xa713	-0.02763
223	0x289f	0.0361
224	0x247e	0.01755
225	0xa810	-0.03174
226	0x2955	0.04166
227	0xa2b1	-0.01307
228	0x2776	0.02914
229	0x247c	0.01752
230	0xa63c	-0.02435
231	0xa69a	-0.02579
232	0x235c	0.01437
233	0x288c	0.03552
234	0xa10e	-0.00987
235	0x25c2	0.02249
236	0x28ec	0.03845
237	0xa215	-0.01188
238	0x292f	0.0405
239	0xa36e	-0.01451
240	0x1008	0.000492
241	0x27d9	0.03065
242	0xa578	-0.02136
243	0x266b	0.02507
244	0x94d7	-0.001182
245	0x219d	0.01096
246	0xa779	-0.02919
247	0x9f57	-0.007168
248	0xa446	-0.0167
249	0x28c9	0.03738
250	0xa714	-0.02765
251	0x27f2	0.03104
252	0x236e	0.01451
253	0x278b	0.02946
254	0xa5fd	-0.02339
255	0xa3aa	-0.01497

model.10.bias f2 [128]
0	0x1f67	0.00723
1	0x275b	0.02873
2	0x116f	0.0006633
3	0x2056	0.00847
4	0xa8f1	-0.0386
5	0x268e	0.0256
6	0x25bf	0.02245
7	0x1c74	0.00435
8	0x2943	0.0411
9	0xa932	-0.0406
10	0x9d3f	-0.005123
11	0xa456	-0.01694
12	0xa12d	-0.01011
13	0x243b	0.01653
14	0x1f8b	0.007366
15	0x25a0	0.02197
16	0xa90d	-0.03946
17	0xa90a	-0.03937
18	0x2375	0.014565
19	0x2935	0.04068
20	0xa294	-0.01285
21	0x2904	0.03918
22	0x2946	0.0412
23	0xa481	-0.0176
24	0x234d	0.01426
25	0xa75a	-0.02872
26	0x0c0e	0.0002475
27	0x9eb8	-0.00656
28	0x2899	0.03592
29	0x9f32	-0.007027
30	0x28e3	0.03818
31	0x1772	0.001818
32	0xa550	-0.02075
33	0x1adb	0.003347
34	0x996d	-0.00265
35	0xa791	-0.02956
36	0xa7a2	-0.02982
37	0x2620	0.02393
38	0xa5de	-0.02292
39	0xa765	-0.02888
40	0xa3de	-0.015366
41	0x18f3	0.002417
42	0x24ec	0.01923
43	0x2795	0.02962
44	0x9508	-0.001228
45	0x2889	0.03543
46	0x293d	0.04092
47	0xa7e8	-0.03088
48	0x96fc	-0.001705
49	0x2152	0.01039
50	0xa885	-0.0353
51	0xa88b	-0.0355
52	0x2153	0.0104
53	0xa4c0	-0.01855
54	0x290c	0.03943
55	0x2436	0.01645
56	0xa2d0	-0.013306
57	0xa58f	-0.02171
58	0xa68a	-0.02554
59	0xa8dc	-0.03796
60	0xa592	-0.02176
61	0x21c7	0.011284
62	0x251a	0.01993
63	0xa874	-0.0348
64	0x9b6f	-0.00363
65	0x9d39	-0.0051
66	0x254c	0.02069
67	0xa81b	-0.03207
68	0x28fd	0.03897
69	0x9ebd	-0.00658
70	0xa250	-0.01233
71	0x24a2	0.0181
72	0x9bfe	-0.003902
73	0xa6e7	-0.02696
74	0x9556	-0.001303
75	0x9fb2	-0.007515
76	0x2842	0.03326
77	0xa384	-0.01468
78	0xa817	-0.03195
79	0xa904	-0.03918
80	0x9a48	-0.003067
81	0xa940	-0.04102
82	0x2754	0.02863
83	0x1c60	0.004272
84	0x229c	0.01291
85	0x16d9	0.001672
86	0xa08f	-0.0089
87	0x28b8	0.03687
88	0x2683	0.02544
89	0x284b	0.03354
90	0xa825	-0.03238
91	0x214c	0.010345
92	0xa93c	-0.0409
93	0xa185	-0.01078
94	0xa036	-0.008224
95	0xa757	-0.02867
96	0x28de	0.03802
97	0xa4fc	-0.01947
98	0x9d4e	-0.00518
99	0xa3bb	-0.0151
100	0x287d	0.03506
101	0x28e2	0.03815
102	0xa952	-0.04156
103	0xa324	-0.01395
104	0xa60f	-0.02367
105	0x2066	0.00859
106	0x25c7	0.02257
107	0xa34d	-0.01426
108	0xa854	-0.0338
109	0xa5b8	-0.02234
110	0xa18c	-0.01083
111	0xa832	-0.03278
112	0x9f83	-0.007336
113	0xa864	-0.0343
114	0x1a47	0.003065
115	0x28ad	0.03653
116	0x26f3	0.02715
117	0x1ee5	0.006733
118	0x23c9	0.015205
119	0x27b3	0.03008
120	0xa3f2	-0.01552
121	0xa914	-0.03967
122	0xa473	-0.01738
123	0x9c1c	-0.004013
124	0x1d7d	0.00536
125	0x27ca	0.03043
126	0x2559	0.02089
127	0x1cdc	0.004745

model.12.weight f2 [128]
0	0x3c00	1.0
1	0x3c00	1.0
2	0x3c00	1.0
3	0x3c00	1.0
4	0x3c00	1.0
5	0x3c00	1.0
6	0x3c00	1.0
7	0x3c00	1.0
8	0x3c00	1.0
9	0x3c00	1.0
10	0x3c00	1.0
11	0x3c00	1.0
12	0x3c00	1.0
13	0x3c00	1.0
14	0x3c00	1.0
15	0x3c00	1.0
16	0x3c00	1.0
17	0x3c00	1.0
18	0x3c00	1.0
19	0x3c00	1.0
20	0x3c00	1.0
21	0x3c00	1.0
22	0x3c00	1.0
23	0x3c00	1.0
24	0x3c00	1.0
25	0x3c00	1.0
26	0x3c00	1.0
27	0x3c00	1.0
28	0x3c00	1.0
29	0x3c00	1.0
30	0x3c00	1.0
31	0x3c00	1.0
32	0x3c00	1.0
33	0x3c00	1.0
34	0x3c00	1.0
35	0x3c00	1.0
36	0x3c00	1.0
37	0x3c00	1.0
38	0x3c00	1.0
39	0x3c00	1.0
40	0x3c00	1.0
41	0x3c00	1.0
42	0x3c00	1.0
43	0x3c00	1.0
44	0x3c00	1.0
45	0x3c00	1.0
46	0x3c00	1.0
47	0x3c00	1.0
48	0x3c00	1.0
49	0x3c00	1.0
50	0x3c00	1.0
51	0x3c00	1.0
52	0x3c00	1.0
53	0x3c00	1.0
54	0x3c00	1.0
55	0x3c00	1.0
56	0x3c00	1.0
57	0x3c00	1.0
58	0x3c00	1.0
59	0x3c00	1.0
60	0x3c00	1.0
61	0x3c00	1.0
62	0x3c00	1.0
63	0x3c00	1.0
64	0x3c00	1.0
65	0x3c00	1.0
66	0x3c00	1.0
67	0x3c00	1.0
68	0x3c00	1.0
69	0x3c00	1.0
70	0x3c00	1.0
71	0x3c00	1.0
72	0x3c00	1.0
73	0x3c00	1.0
74	0x3c00	1.0
75	0x3c00	1.0
76	0x3c00	1.0
77	0x3c00	1.0
78	0x3c00	1.0
79	0x3c00	1.0
80	0x3c00	1.0
81	0x3c00	1.0
82	0x3c00	1.0
83	0x3c00	1.0
84	0x3c00	1.0
85	0x3c00	1.0
86	0x3c00	1.0
87	0x3c00	1.0
88	0x3c00	1.0
89	0x3c00	1.0
90	0x3c00	1.0
91	0x3c00	1.0
92	0x3c00	1.0
93	0x3c00	1.0
94	0x3c00	1.0
95	0x3c00	1.0
96	0x3c00	1.0
97	0x3c00	1.0
98	0x3c00	1.0
99	0x3c00	1.0
100	0x3c00	1.0
101	0x3c00	1.0
102	0x3c00	1.0
103	0x3c00	1.0
104	0x3c00	1.0
105	0x3c00	1.0
106	0x3c00	1.0
107	0x3c00	1.0
108	0x3c00	1.0
109	0x3c00	1.0
110	0x3c00	1.0
111	0x3c00	1.0
112	0x3c00	1.0
113	0x3c00	1.0
114	0x3c00	1.0
115	0x3c00	1.0
116	0x3c00	1.0
117	0x3c00	1.0
118	0x3c00	1.0
119	0x3c00	1.0
120	0x3c00	1.0
121	0x3c00	1.0
122	0x3c00	1.0
123	0x3c00	1.0
124	0x3c00	1.0
125	0x3c00	1.0
126	0x3c00	1.0
127	0x3c00	1.0

model.12.bias f2 [128]
0	0x0000	0.0
1	0x0000	0.0
2	0x0000	0.0
3	0x0000	0.0
4	0x0000	0.0
5	0x0000	0.0
6	0x0000	0.0
7	0x0000	0.0
8	0x0000	0.0
9	0x0000	0.0
10	0x0000	0.0
11	0x0000	0.0
12	0x0000	0.0
13	0x0000	0.0
14	0x0000	0.0
15	0x0000	0.0
16	0x0000	0.0
17	0x0000	0.0
18	0x0000	0.0
19	0x0000	0.0
20	0x0000	0.0
21	0x0000	0.0
22	0x0000	0.0
23	0x0000	0.0
24	0x0000	0.0
25	0x0000	0.0
26	0x0000	0.0
27	0x0000	0.0
28	0x0000	0.0
29	0x0000	0.0
30	0x0000	0.0
31	0x0000	0.0
32	0x0000	0.0
33	0x0000	0.0
34	0x0000	0.0
35	0x0000	0.0
36	0x0000	0.0
37	0x0000	0.0
38	0x0000	0.0
39	0x0000	0.0
40	0x0000	0.0
41	0x0000	0.0
42	0x0000	0.0
43	0x0000	0.0
44	0x0000	0.0
45	0x0000	0.0
46	0x0000	0.0
47	0x0000	0.0
48	0x0000	0.0
49	0x0000	0.0
50	0x0000	0.0
51	0x0000	0.0
52	0x0000	0.0
53	0x0000	0.0
54	0x0000	0.0
55	0x0000	0.0
56	0x0000	0.0
57	0x0000	0.0
58	0x0000	0.0
59	0x0000	0.0
60	0x0000	0.0
61	0x0000	0.0
62	0x0000	0.0
63	0x0000	0.0
64	0x0000	0.0
65	0x0000	0.0
66	0x0000	0.0
67	0x0000	0.0
68	0x0000	0.0
69	0x0000	0.0
70	0x0000	0.0
71	0x0000	0.0
72	0x0000	0.0
73	0x0000	0.0
74	0x0000	0.0
75	0x0000	0.0
76	0x0000	0.0
77	0x0000	0.0
78	0x0000	0.0
79	0x0000	0.0
80	0x0000	0.0
81	0x0000	0.0
82	0x0000	0.0
83	0x0000	0.0
84	0x0000	0.0
85	0x0000	0.0
86	0x0000	0.0
87	0x0000	0.0
88	0x0000	0.0
89	0x0000	0.0
90	0x0000	0.0
91	0x0000	0.0
92	0x0000	0.0
93	0x0000	0.0
94	0x0000	0.0
95	0x0000	0.0
96	0x0000	0.0
97	0x0000	0.0
98	0x0000	0.0
99	0x0000	0.0
100	0x0000	0.0
101	0x0000	0.0
102	0x0000	0.0
103	0x0000	0.0
104	0x0000	0.0
105	0x0000	0.0
106	0x0000	0.0
107	0x0000	0.0
108	0x0000	0.0
109	0x0000	0.0
110	0x0000	0.0
111	0x0000	0.0
112	0x0000	0.0
113	0x0000	0.0
114	0x0000	0.0
115	0x0000	0.0
116	0x0000	0.0
117	0x0000	0.0
118	0x0000	0.0
119	0x0000	0.0
120	0x0000	0.0
121	0x0000	0.0
122	0x0000	0.0
123	0x0000	0.0
124	0x0000	0.0
125	0x0000	0.0
126	0x0000	0.0
127	0x0000	0.0

model.13.weight f2 [128, 128, 3, 3]
0	0xa63b	-0.02434
1	0xa743	-0.02837
2	0xa62c	-0.02411
3	0x23f4	0.01553
4	0x24ab	0.01823
5	0x2234	0.012115
6	0xa64b	-0.02458
7	0x202c	0.00815
8	0x1be4	0.003853
9	0x222a	0.01204
10	0x2716	0.02768
11	0x2480	0.01758
12	0xa708	-0.02747
13	0x16ea	0.001688
14	0xa6f0	-0.0271
15	0x266b	0.02507
16	0xa4a6	-0.01816
17	0x23da	0.015335
18	0x2121	0.01002
19	0xa564	-0.02106
20	0x9d2b	-0.005047
21	0x264c	0.0246
22	0xa3b3	-0.01504
23	0x267e	0.02536
24	0xa62d	-0.02412
25	0xa372	-0.01454
26	0xa48a	-0.01773
27	0x9ebf	-0.006588
28	0x18ee	0.002407
29	0x2607	0.02354
30	0xa30e	-0.01378
31	0x9059	-0.0005307
32	0x2618	0.0238
33	0xa470	-0.01733
34	0x22de	0.01341
35	0x2487	0.01768
36	0x2607	0.02354
37	0x2207	0.01177
38	0x1e8d	0.006397
39	0x2431	0.01637
40	0x264a	0.02457
41	0x9cf9	-0.004856
42	0xa56a	-0.02115
43	0xa684	-0.02545
44	0x2491	0.01784
45	0xa1a8	-0.01105
46	0x25c8	0.02258
47	0x2071	0.008675
48	0xa32c	-0.01401
49	0xa51b	-0.01994
50	0xa45b	-0.01701
51	0x26c1	0.02638
52	0x26d8	0.02673
53	0x227d	0.01267
54	0xa368	-0.014465
55	0x24d6	0.01889
56	0x25b8	0.02234
57	0x247b	0.0175
58	0x2713	0.02763
59	0x25ea	0.0231
60	0x1e69	0.00626
61	0x2759	0.0287
62	0xa58e	-0.0217
63	0xa188	-0.0108
64	0x22b5	0.0131
65	0xa443	-0.01665
66	0x9cb4	-0.004593
67	0x244a	0.01675
68	0x0dd7	0.0003564
69	0x2537	0.02037
70	0xa02c	-0.00815
71	0x257f	0.02147
72	0x19e4	0.002876
73	0x2250	0.01233
74	0xa77f	-0.02928
75	0x249e	0.01804
76	0x9ef2	-0.006783
77	0xa48b	-0.01775
78	0x203d	0.00828
79	0x26bc	0.0263
80	0xa65f	-0.02489
81	0x25ff	0.02342
82	0x23bc	0.01511
83	0x24b3	0.01836
84	0xa631	-0.02419
85	0xa6ef	-0.02708
86	0x2401	0.01564
87	0x2689	0.02553
88	0x260b	0.0236
89	0x9958	-0.00261
90	0x26c3	0.02641
91	0x9d79	-0.005344
92	0x1cee	0.004814
93	0xa559	-0.02089
94	0xa45d	-0.01704
95	0xa0f3	-0.00967
96	0xa4d9	-0.01894
97	0x2695	0.02571
98	0x1c2f	0.004086
99	0xa76c	-0.02899
100	0x97c8	-0.0019
101	0x2561	0.02101
102	0xa519	-0.01991
103	0x2478	0.01746
104	0x9e23	-0.005993
105	0xa3ff	-0.01562
106	0x15cf	0.001418
107	0x26fd	0.0273
108	0x1ae6	0.003368
109	0xa721	-0.02785
110	0xa692	-0.02567
111	0x9f04	-0.00685
112	0x9dbf	-0.00561
113	0x2170	0.01062
114	0xa4d3	-0.01884
115	0x241c	0.01605
116	0x1c1c	0.004013
117	0xa691	-0.02565
118	0xa783	-0.02934
119	0x25a8	0.0221
120	0x2705	0.02742
121	0x98d8	-0.002365
122	0xa456	-0.01694
123	0xa26a	-0.01253
124	0x9fcc	-0.007614
125	0xa628	-0.02405
126	0x9f0f	-0.006893
127	0x2779	0.02919
128	0x9933	-0.002539
129	0x207b	0.00875
130	0x2389	0.01472
131	0x18a9	0.002275
132	0x2516	0.01987
133	0xa654	-0.02472
134	0x9da0	-0.005493
135	0xa05e	-0.00853
136	0x8976	-0.0001667
137	0xa42d	-0.01631
138	0x9fb4	-0.007523
139	0xa3e1	-0.01539
140	0x2513	0.01982
141	0x267d	0.02534
142	0xa38f	-0.01476
143	0x9dee	-0.00579
144	0xa619	-0.02382
145	0x9e7e	-0.00634
146	0xa6df	-0.02684
147	0x9647	-0.001533
148	0xa246	-0.01225
149	0x22f5	0.01359
150	0x249f	0.01805
151	0x18a9	0.002275
152	0x1c4c	0.004196
153	0xa5e3	-0.023
154	0x2384	0.01468
155	0x262e	0.02414
156	0xa6a4	-0.02594
157	0x2564	0.02106
158	0xa27c	-0.012665
159	0x904f	-0.000526
160	0x219e	0.01097
161	0x20c7	0.00933
162	0xa63b	-0.02434
163	0x23ab	0.01498
164	0x23a6	0.01494
165	0xa6a4	-0.02594
166	0x14ad	0.001142
167	0x9de6	-0.00576
168	0xa1ef	-0.01159
169	0x251a	0.01993
170	0x2473	0.01738
171	0xa638	-0.02429
172	0xa103	-0.00979
173	0xa695	-0.02571
174	0x2528	0.02014
175	0xa64c	-0.0246
176	0xa34a	-0.01424
177	0xa4e9	-0.01918
178	0x993c	-0.002556
179	0xa643	-0.02446
180	0x26cb	0.02654
181	0x96aa	-0.001627
182	0xa625	-0.024
183	0x9ecf	-0.00665
184	0xa3b0	-0.015015
185	0x9db2	-0.00556
186	0x222d	0.01206
187	0xa635	-0.02425
188	0x24d9	0.01894
189	0xa344	-0.01419
190	0x21e9	0.01154
191	0xa061	-0.00855
192	0x25e6	0.02304
193	0xa125	-0.01005
194	0x1220	0.0007477
195	0x1dd6	0.0057
196	0xa58e	-0.0217
197	0xa5fe	-0.0234
198	0xa53e	-0.02048
199	0x1afc	0.00341
200	0x274d	0.02852
201	0xa38b	-0.01473
202	0xa66f	-0.02513
203	0x2682	0.02542
204	0xa224	-0.01199
205	0x1fdb	0.00767
206	0x9918	-0.002487
207	0x1fd4	0.007645
208	0x2133	0.010155
209	0x2047	0.008354
210	0xa76f	-0.02904
211	0xa15b	-0.01046
212	0x9f8e	-0.007378
213	0x2589	0.02162
214	0x9987	-0.002699
215	0xa419	-0.016
216	0x210a	0.00984
217	0x9eb2	-0.00654
218	0x2107	0.00982
219	0xa755	-0.02864
220	0xa429	-0.01625
221	0x2002	0.00783
222	0x19e3	0.002874
223	0x1f46	0.007103
224	0x90f2	-0.0006037
225	0x9553	-0.0013
226	0x201d	0.00803
227	0x260d	0.02364
228	0x23f9	0.01557
229	0x9d0e	-0.004936
230	0x2486	0.01767
231	0x26e3	0.0269
232	0x22ff	0.013664
233	0x96bb	-0.001643
234	0x20ac	0.009125
235	0x9ea7	-0.006496
236	0x9a3f	-0.00305
237	0x1d66	0.005272
238	0x2082	0.008804
239	0xa5be	-0.02243
240	0x2247	0.01226
241	0x25fb	0.02336
242	0xa5ef	-0.02318
243	0x22ac	0.01303
244	0x1dcd	0.005665
245	0x9c06	-0.00393
246	0xa629	-0.02406
247	0x26f1	0.02711
248	0x2049	0.00837
249	0xa478	-0.01746
250	0x1216	0.000743
251	0x1d22	0.005013
252	0x1bdb	0.003836
253	0xa651	-0.02467
254	0x1c72	0.00434
255	0x275c	0.02875

model.13.bias f2 [128]
0	0x985f	-0.002134
1	0xa17e	-0.01073
2	0xa3dd	-0.01536
3	0x26da	0.02676
4	0xa22f	-0.01208
5	0x206a	0.00862
6	0x2455	0.01692
7	0xa6af	-0.02611
8	0x9a40	-0.003052
9	0x2362	0.01442
10	0xa28c	-0.01279
11	0xa3cd	-0.015236
12	0x0383	5.36e-05
13	0x9a98	-0.00322
14	0x9ec5	-0.00661
15	0xa4e1	-0.01906
16	0x211b	0.00997
17	0xa65b	-0.02483
18	0xa563	-0.02104
19	0xa440	-0.0166
20	0xa517	-0.01988
21	0x22d9	0.013374
22	0x1902	0.002445
23	0x9df5	-0.005817
24	0xa17c	-0.01071
25	0x26a8	0.026
26	0x2265	0.01249
27	0xa71b	-0.02776
28	0x2240	0.01221
29	0xa021	-0.008064
30	0x2728	0.02795
31	0xa1c3	-0.01125
32	0xa416	-0.01596
33	0xa529	-0.02016
34	0xa728	-0.02795
35	0x23d3	0.01528
36	0x25b1	0.02223
37	0x2644	0.02448
38	0x244e	0.01682
39	0xa5ea	-0.0231
40	0xa241	-0.012215
41	0x9c6a	-0.00431
42	0x241e	0.01608
43	0xa4c2	-0.01859
44	0x96e3	-0.001681
45	0xa6f2	-0.02713
46	0x275e	0.02878
47	0x1bf6	0.003887
48	0xa6ba	-0.02628
49	0x9df0	-0.0058
50	0xa778	-0.02917
51	0x9cee	-0.004814
52	0x275f	0.0288
53	0x2457	0.01695
54	0x9894	-0.002235
55	0x231d	0.01389
56	0xa309	-0.01374
57	0x223b	0.01217
58	0x214c	0.010345
59	0xa42c	-0.0163
60	0x948f	-0.001113
61	0x2088	0.00885
62	0xa775	-0.02913
63	0x21b2	0.01112
64	0xa638	-0.02429
65	0x21da	0.01143
66	0xa131	-0.01014
67	0x1e7d	0.006336
68	0x0e58	0.0003872
69	0x25c6	0.02255
70	0x24d7	0.0189
71	0x8677	-9.865e-05
72	0xa4cf	-0.01878
73	0x1900	0.002441
74	0x9e68	-0.006256
75	0x1a8b	0.003195
76	0x9fa4	-0.00746
77	0x2536	0.02036
78	0xa5ba	-0.02237
79	0x270e	0.02756
80	0x23e1	0.01539
81	0xa6b2	-0.02615
82	0xa4c4	-0.01862
83	0x23eb	0.015465
84	0xa101	-0.00977
85	0xa133	-0.010155
86	0xa73f	-0.0283
87	0xa62a	-0.02408
88	0xa0e6	-0.00957
89	0xa1c3	-0.01125
90	0x24b6	0.0184
91	0xa457	-0.01695
92	0x2364	0.014435
93	0x2665	0.02498
94	0x26dd	0.02681
95	0x1d9e	0.005486
96	0x19d1	0.00284
97	0x274d	0.02852
98	0x2626	0.02402
99	0xa5dc	-0.02289
100	0x2474	0.0174
101	0xa4e4	-0.0191
102	0x1c42	0.004158
103	0x1b2a	0.003498
104	0xa411	-0.01588
105	0x1c50	0.00421
106	0x9efe	-0.00683
107	0xa431	-0.01637
108	0xa599	-0.02187
109	0x26a1	0.0259
110	0x229d	0.01292
111	0xa0da	-0.009476
112	0xa16a	-0.010574
113	0x2415	0.01595
114	0xa57a	-0.0214
115	0xa536	-0.02036
116	0x20d9	0.00947
117	0x272e	0.02805
118	0xa5af	-0.0222
119	0xa6aa	-0.02603
120	0xa5f1	-0.02321
121	0x1b27	0.003492
122	0xa351	-0.01429
123	0xa686	-0.02548
124	0x9df8	-0.00583
125	0x1a28	0.003006
126	0xa68c	-0.02557
127	0xa2be	-0.01317

model.16.weight f2 [15, 128, 8, 8]
0	0xa091	-0.00892
1	0x9081	-0.00055
2	0x196b	0.002645
3	0xa147	-0.01031
4	0x9c8e	-0.004448
5	0x1d75	0.00533
6	0x20c5	0.009315
7	0x1cbd	0.004627
8	0x1fcb	0.00761
9	0x99e0	-0.002869
10	0x1b53	0.003576
11	0x1cd9	0.004734
12	0x1f04	0.00685
13	0x9e64	-0.00624
14	0x1c0d	0.003956
15	0xa0e4	-0.00955
16	0x188b	0.002218
17	0x157f	0.001342
18	0x9375	-0.0009103
19	0x9f09	-0.00687
20	0xa114	-0.00992
21	0x9c94	-0.00447
22	0x1df5	0.005817
23	0x1f60	0.007202
24	0x9eca	-0.00663
25	0xa1a1	-0.010994
26	0x1ac9	0.003313
27	0x9cfb	-0.004864
28	0x9e25	-0.006
29	0x9ede	-0.006706
30	0xa0a4	-0.00906
31	0x15d4	0.001423
32	0xa1a0	-0.01099
33	0x9da5	-0.005512
34	0x20e1	0.00953
35	0x1e7e	0.00634
36	0x1cec	0.004807
37	0x9b60	-0.003601
38	0x9d0f	-0.00494
39	0x1b34	0.003517
40	0x1dcf	0.005672
41	0x993f	-0.002562
42	0x1f3f	0.007076
43	0x16bc	0.001644
44	0x1f5e	0.007195
45	0x9b27	-0.003492
46	0x0450	6.58e-05
47	0x9764	-0.001804
48	0x025e	3.61e-05
49	0x14b9	0.001153
50	0x1779	0.001824
51	0x9e88	-0.00638
52	0xa00d	-0.00791
53	0x9f88	-0.007355
54	0xa030	-0.00818
55	0x202b	0.00814
56	0x9383	-0.000917
57	0x217f	0.010735
58	0x2085	0.00883
59	0x9c31	-0.004093
60	0x95a6	-0.001379
61	0x1bdd	0.00384
62	0x9ff3	-0.007763
63	0x94fb	-0.001216
64	0xa078	-0.00873
65	0x9e97	-0.006435
66	0x2081	0.0088
67	0x203d	0.00828
68	0xa117	-0.00994
69	0xa038	-0.00824
70	0x212a	0.010086
71	0x18bf	0.002317
72	0xa02e	-0.00816
73	0x1cdf	0.004757
74	0xa015	-0.00797
75	0x1c79	0.004368
76	0x9cf9	-0.004856
77	0x20db	0.00948
78	0x1fe1	0.007694
79	0x9ed8	-0.006683
80	0x20d5	0.00944
81	0xa0ed	-0.00962
82	0x2189	0.01081
83	0x9d3e	-0.00512
84	0x9cc5	-0.004658
85	0x217e	0.01073
86	0x1e2d	0.00603
87	0x19b5	0.002787
88	0x2138	0.01019
89	0xa0a5	-0.00907
90	0x2160	0.0105
91	0x1d76	0.005333
92	0xa118	-0.00995
93	0x1ca6	0.00454
94	0x1eec	0.00676
95	0x89d4	-0.0001779
96	0xa0f9	-0.00971
97	0x1311	0.0008626
98	0x1a9c	0.003227
99	0x21a2	0.011
100	0x146a	0.001078
101	0xa105	-0.0098
102	0x9e1e	-0.005974
103	0x94f2	-0.001207
104	0x141d	0.001004
105	0x208e	0.008896
106	0x2037	0.00823
107	0x1efd	0.006824
108	0x9f43	-0.00709
109	0x1f1f	0.006954
110	0xa097	-0.008965
111	0x9acf	-0.003325
112	0x219b	0.01095
113	0x9e1a	-0.00596
114	0x1b1d	0.003473
115	0x16e3	0.001681
116	0x9d30	-0.005066
117	0x19a7	0.00276
118	0x9e15	-0.00594
119	0x1b9a	0.003712
120	0x1d9a	0.00547
121	0x20e3	0.009544
122	0x940b	-0.000987
123	0x2012	0.00795
124	0x9a43	-0.003057
125	0x98a2	-0.002262
126	0x9e3b	-0.006084
127	0x1e94	0.006424
128	0xa13d	-0.01023
129	0x1d18	0.004974
130	0x2029	0.008125
131	0x1a5d	0.003107
132	0x9eb9	-0.006565
133	0x17d7	0.001914
134	0xa150	-0.010376
135	0x9bc4	-0.003792
136	0x9f24	-0.006973
137	0x9d2d	-0.005054
138	0x9d78	-0.00534
139	0x9e96	-0.00643
140	0x1fbb	0.00755
141	0x8500	-7.63e-05
142	0x1dde	0.00573
143	0x1eac	0.006516
144	0x9410	-0.000992
145	0x9e34	-0.006058
146	0x1eb7	0.006557
147	0x98e9	-0.002398
148	0x9c88	-0.004425
149	0x199f	0.002745
150	0x1ebe	0.006584
151	0x8a7a	-0.0001976
152	0x9fe7	-0.007717
153	0x1e6f	0.006283
154	0x1603	0.001468
155	0xa16e	-0.010605
156	0x9652	-0.001543
157	0x995a	-0.002613
158	0x982f	-0.002043
159	0x0fa4	0.0004663
160	0x98a3	-0.002264
161	0x9df9	-0.005833
162	0x98e7	-0.002394
163	0x84a0	-7.06e-05
164	0x9c81	-0.0044
165	0x194d	0.002588
166	0x9455	-0.001058
167	0x8830	-0.0001278
168	0x2046	0.00835
169	0x19b0	0.002777
170	0xa051	-0.00843
171	0x9e9f	-0.006466
172	0x1e78	0.006317
173	0x1c8d	0.004444
174	0x986b	-0.002157
175	0x987f	-0.002195
176	0x201b	0.00802
177	0x9a10	-0.00296
178	0x9659	-0.00155
179	0x1ccf	0.004696
180	0xa165	-0.01054
181	0x1ea5	0.00649
182	0x1a4f	0.00308
183	0x9e25	-0.006
184	0x2023	0.00808
185	0x991d	-0.002497
186	0x9d8f	-0.00543
187	0x9352	-0.0008936
188	0x9d43	-0.00514
189	0x20ff	0.00976
190	0x9ffb	-0.007793
191	0x9f65	-0.00722
192	0x9d84	-0.005386
193	0x9b61	-0.003603
194	0x00e9	1.39e-05
195	0x9853	-0.002111
196	0x9c84	-0.00441
197	0xa023	-0.00808
198	0x1f73	0.007275
199	0x177c	0.001827
200	0x1cbb	0.00462
201	0x9722	-0.001741
202	0x1d77	0.005337
203	0x2171	0.01063
204	0x9b82	-0.003666
205	0xa08f	-0.0089
206	0xa185	-0.01078
207	0x9900	-0.002441
208	0x9fd0	-0.00763
209	0x965a	-0.001551
210	0x1d25	0.005024
211	0x9cac	-0.004562
212	0x9ff0	-0.00775
213	0x9e6e	-0.00628
214	0x8d15	-0.0003102
215	0x1e3d	0.006092
216	0x18f6	0.002422
217	0x177b	0.001826
218	0x1c96	0.00448
219	0x1c59	0.004246
220	0x9bec	-0.003868
221	0x947f	-0.001098
222	0xa034	-0.00821
223	0x99c0	-0.002808
224	0x20ab	0.00912
225	0xa016	-0.00798
226	0xa0ee	-0.00963
227	0xa031	-0.00819
228	0xa192	-0.01088
229	0x1d2e	0.00506
230	0x20a1	0.00904
231	0x1f95	0.007404
232	0x9628	-0.001503
233	0x9f93	-0.007397
234	0x9546	-0.001287
235	0x14b4	0.001148
236	0x18b3	0.002295
237	0x1ce9	0.004795
238	0x132a	0.0008745
239	0x198a	0.002705
240	0xa0e8	-0.00958
241	0x1757	0.001792
242	0x1da5	0.005512
243	0x1d1e	0.004997
244	0x1667	0.001563
245	0xa0ad	-0.00913
246	0x1273	0.0007873
247	0x9b07	-0.003431
248	0x9867	-0.00215
249	0x202a	0.00813
250	0x19aa	0.002766
251	0x0e49	0.0003836
252	0x9fd5	-0.00765
253	0x9a5f	-0.00311
254	0x9644	-0.00153
255	0x9c3f	-0.004147

model.16.bias f2 [15]
0	0x1fd8	0.00766
1	0x1b2c	0.003502
2	0x1e6d	0.006275
3	0x1c6c	0.00432
4	0x20c4	0.00931
5	0x9cba	-0.004616
6	0x155e	0.00131
7	0xa0ed	-0.00962
8	0x126f	0.0007854
9	0x9f66	-0.007225
10	0x8ee1	-0.0004199
11	0x929d	-0.0008073
12	0x19a7	0.00276
13	0xa15b	-0.01046
14	0x1e72	0.006294
